…
I0210 15:53:25.721456 27601 net.cpp:313] The NetState phase (0) differed from the phase (1) specified by a rule in layer data
I0210 15:53:25.722072 27601 net.cpp:49] Initializing net from parameters: 
state {
  phase: TRAIN
}
layer {
  name: "data"
  type: "Data"
  top: "data"
  top: "label"
  include {
    phase: TRAIN
  }
  transform_param {
    mirror: true
    crop_size: 224
    mean_value: 110
    mean_value: 127
    mean_value: 123
  }
  data_param {
    source: "/opt/luojh/Dataset/CUB/LMDB/cub200_2011_train_lmdb"
    batch_size: 16
    backend: LMDB
  }
}
layer {
  name: "conv1_1"
  type: "Convolution"
  bottom: "data"
  top: "conv1_1"
  param {
    lr_mult: 1
    decay_mult: 1
  }
  param {
    lr_mult: 2
    decay_mult: 0
  }
  convolution_param {
    num_output: 64
    pad: 1
    kernel_size: 3
  }
}
layer {
  name: "relu1_1"
  type: "ReLU"
  bottom: "conv1_1"
  top: "relu1_1"
}
layer {
  name: "conv1_2"
  type: "Convolution"
  bottom: "relu1_1"
  top: "conv1_2"
  param {
    lr_mult: 1
    decay_mult: 1
  }
  param {
    lr_mult: 2
    decay_mult: 0
  }
  convolution_param {
    num_output: 64
    pad: 1
    kernel_size: 3
  }
}
layer {
  name: "relu1_2"
  type: "ReLU"
  bottom: "conv1_2"
  top: "relu1_2"
}
layer {
  name: "pool1"
  type: "Pooling"
  bottom: "relu1_2"
  top: "pool1"
  pooling_param {
    pool: MAX
    kernel_size: 2
    stride: 2
  }
}
layer {
  name: "conv2_1"
  type: "Convolution"
  bottom: "pool1"
  top: "conv2_1"
  param {
    lr_mult: 1
    decay_mult: 1
  }
  param {
    lr_mult: 2
    decay_mult: 0
  }
  convolution_param {
    num_output: 128
    pad: 1
    kernel_size: 3
  }
}
layer {
  name: "relu2_1"
  type: "ReLU"
  bottom: "conv2_1"
  top: "relu2_1"
}
layer {
  name: "conv2_2"
  type: "Convolution"
  bottom: "relu2_1"
  top: "conv2_2"
  param {
    lr_mult: 1
    decay_mult: 1
  }
  param {
    lr_mult: 2
    decay_mult: 0
  }
  convolution_param {
    num_output: 128
    pad: 1
    kernel_size: 3
  }
}
layer {
  name: "relu2_2"
  type: "ReLU"
  bottom: "conv2_2"
  top: "relu2_2"
}
layer {
  name: "pool2"
  type: "Pooling"
  bottom: "relu2_2"
  top: "pool2"
  pooling_param {
    pool: MAX
    kernel_size: 2
    stride: 2
  }
}
layer {
  name: "conv3_1"
  type: "Convolution"
  bottom: "pool2"
  top: "conv3_1"
  param {
    lr_mult: 1
    decay_mult: 1
  }
  param {
    lr_mult: 2
    decay_mult: 0
  }
  convolution_param {
    num_output: 256
    pad: 1
    kernel_size: 3
  }
}
layer {
  name: "relu3_1"
  type: "ReLU"
  bottom: "conv3_1"
  top: "relu3_1"
}
layer {
  name: "conv3_2"
  type: "Convolution"
  bottom: "relu3_1"
  top: "conv3_2"
  param {
    lr_mult: 1
    decay_mult: 1
  }
  param {
    lr_mult: 2
    decay_mult: 0
  }
  convolution_param {
    num_output: 256
    pad: 1
    kernel_size: 3
  }
}
layer {
  name: "relu3_2"
  type: "ReLU"
  bottom: "conv3_2"
  top: "relu3_2"
}
layer {
  name: "conv3_3"
  type: "Convolution"
  bottom: "relu3_2"
  top: "conv3_3"
  param {
    lr_mult: 1
    decay_mult: 1
  }
  param {
    lr_mult: 2
    decay_mult: 0
  }
  convolution_param {
    num_output: 256
    pad: 1
    kernel_size: 3
  }
}
layer {
  name: "relu3_3"
  type: "ReLU"
  bottom: "conv3_3"
  top: "relu3_3"
}
layer {
  name: "pool3"
  type: "Pooling"
  bottom: "relu3_3"
  top: "pool3"
  pooling_param {
    pool: MAX
    kernel_size: 2
    stride: 2
  }
}
layer {
  name: "conv4_1"
  type: "Convolution"
  bottom: "pool3"
  top: "conv4_1"
  param {
    lr_mult: 1
    decay_mult: 1
  }
  param {
    lr_mult: 2
    decay_mult: 0
  }
  convolution_param {
    num_output: 512
    pad: 1
    kernel_size: 3
  }
}
layer {
  name: "relu4_1"
  type: "ReLU"
  bottom: "conv4_1"
  top: "relu4_1"
}
layer {
  name: "conv4_2"
  type: "Convolution"
  bottom: "relu4_1"
  top: "conv4_2"
  param {
    lr_mult: 1
    decay_mult: 1
  }
  param {
    lr_mult: 2
    decay_mult: 0
  }
  convolution_param {
    num_output: 512
    pad: 1
    kernel_size: 3
  }
}
layer {
  name: "relu4_2"
  type: "ReLU"
  bottom: "conv4_2"
  top: "relu4_2"
}
layer {
  name: "conv4_3"
  type: "Convolution"
  bottom: "relu4_2"
  top: "conv4_3"
  param {
    lr_mult: 1
    decay_mult: 1
  }
  param {
    lr_mult: 2
    decay_mult: 0
  }
  convolution_param {
    num_output: 512
    pad: 1
    kernel_size: 3
  }
}
layer {
  name: "relu4_3"
  type: "ReLU"
  bottom: "conv4_3"
  top: "relu4_3"
}
layer {
  name: "pool4"
  type: "Pooling"
  bottom: "relu4_3"
  top: "pool4"
  pooling_param {
    pool: MAX
    kernel_size: 2
    stride: 2
  }
}
layer {
  name: "conv5_1"
  type: "Convolution"
  bottom: "pool4"
  top: "conv5_1"
  param {
    lr_mult: 1
    decay_mult: 1
  }
  param {
    lr_mult: 2
    decay_mult: 0
  }
  convolution_param {
    num_output: 512
    pad: 1
    kernel_size: 3
  }
}
layer {
  name: "relu5_1"
  type: "ReLU"
  bottom: "conv5_1"
  top: "relu5_1"
}
layer {
  name: "conv5_2"
  type: "Convolution"
  bottom: "relu5_1"
  top: "conv5_2"
  param {
    lr_mult: 1
    decay_mult: 1
  }
  param {
    lr_mult: 2
    decay_mult: 0
  }
  convolution_param {
    num_output: 512
    pad: 1
    kernel_size: 3
  }
}
layer {
  name: "relu5_2"
  type: "ReLU"
  bottom: "conv5_2"
  top: "relu5_2"
}
layer {
  name: "conv5_3"
  type: "Convolution"
  bottom: "relu5_2"
  top: "conv5_3"
  param {
    lr_mult: 1
    decay_mult: 1
  }
  param {
    lr_mult: 2
    decay_mult: 0
  }
  convolution_param {
    num_output: 512
    pad: 1
    kernel_size: 3
  }
}
layer {
  name: "relu5_3"
  type: "ReLU"
  bottom: "conv5_3"
  top: "relu5_3"
}
layer {
  name: "pool5"
  type: "Pooling"
  bottom: "relu5_3"
  top: "pool5"
  pooling_param {
    pool: AVE
    kernel_size: 14
    stride: 1
  }
}
layer {
  name: "softmax"
  type: "Convolution"
  bottom: "pool5"
  top: "softmax"
  param {
    lr_mult: 10
    decay_mult: 10
  }
  param {
    lr_mult: 20
    decay_mult: 0
  }
  convolution_param {
    num_output: 200
    kernel_size: 1
  }
}
layer {
  name: "loss"
  type: "SoftmaxWithLoss"
  bottom: "softmax"
  bottom: "label"
  top: "loss"
}
layer {
  name: "acc_top_1"
  type: "Accuracy"
  bottom: "softmax"
  bottom: "label"
  top: "acc_top_1"
  accuracy_param {
    top_k: 1
  }
}
I0210 15:53:25.722358 27601 layer_factory.hpp:77] Creating layer data
I0210 15:53:25.722877 27601 net.cpp:91] Creating Layer data
I0210 15:53:25.722893 27601 net.cpp:399] data -> data
I0210 15:53:25.722965 27601 net.cpp:399] data -> label
I0210 15:53:25.769906 27606 db_lmdb.cpp:35] Opened lmdb /opt/luojh/Dataset/CUB/LMDB/cub200_2011_train_lmdb
I0210 15:53:25.805263 27601 data_layer.cpp:41] output data size: 16,3,224,224
I0210 15:53:25.824585 27601 net.cpp:141] Setting up data
I0210 15:53:25.824618 27601 net.cpp:148] Top shape: 16 3 224 224 (2408448)
I0210 15:53:25.824625 27601 net.cpp:148] Top shape: 16 (16)
I0210 15:53:25.824630 27601 net.cpp:156] Memory required for data: 9633856
I0210 15:53:25.824643 27601 layer_factory.hpp:77] Creating layer label_data_1_split
I0210 15:53:25.824656 27601 net.cpp:91] Creating Layer label_data_1_split
I0210 15:53:25.824661 27601 net.cpp:425] label_data_1_split <- label
I0210 15:53:25.824678 27601 net.cpp:399] label_data_1_split -> label_data_1_split_0
I0210 15:53:25.824689 27601 net.cpp:399] label_data_1_split -> label_data_1_split_1
I0210 15:53:25.824769 27601 net.cpp:141] Setting up label_data_1_split
I0210 15:53:25.824780 27601 net.cpp:148] Top shape: 16 (16)
I0210 15:53:25.824784 27601 net.cpp:148] Top shape: 16 (16)
I0210 15:53:25.824806 27601 net.cpp:156] Memory required for data: 9633984
I0210 15:53:25.824810 27601 layer_factory.hpp:77] Creating layer conv1_1
I0210 15:53:25.824826 27601 net.cpp:91] Creating Layer conv1_1
I0210 15:53:25.824829 27601 net.cpp:425] conv1_1 <- data
I0210 15:53:25.824836 27601 net.cpp:399] conv1_1 -> conv1_1
I0210 15:53:25.834090 27607 blocking_queue.cpp:50] Waiting for data
I0210 15:53:26.023404 27601 net.cpp:141] Setting up conv1_1
I0210 15:53:26.023444 27601 net.cpp:148] Top shape: 16 64 224 224 (51380224)
I0210 15:53:26.023449 27601 net.cpp:156] Memory required for data: 215154880
I0210 15:53:26.023468 27601 layer_factory.hpp:77] Creating layer relu1_1
I0210 15:53:26.023480 27601 net.cpp:91] Creating Layer relu1_1
I0210 15:53:26.023485 27601 net.cpp:425] relu1_1 <- conv1_1
I0210 15:53:26.023491 27601 net.cpp:399] relu1_1 -> relu1_1
I0210 15:53:26.023661 27601 net.cpp:141] Setting up relu1_1
I0210 15:53:26.023672 27601 net.cpp:148] Top shape: 16 64 224 224 (51380224)
I0210 15:53:26.023676 27601 net.cpp:156] Memory required for data: 420675776
I0210 15:53:26.023679 27601 layer_factory.hpp:77] Creating layer conv1_2
I0210 15:53:26.023692 27601 net.cpp:91] Creating Layer conv1_2
I0210 15:53:26.023697 27601 net.cpp:425] conv1_2 <- relu1_1
I0210 15:53:26.023703 27601 net.cpp:399] conv1_2 -> conv1_2
I0210 15:53:26.024648 27601 net.cpp:141] Setting up conv1_2
I0210 15:53:26.024663 27601 net.cpp:148] Top shape: 16 64 224 224 (51380224)
I0210 15:53:26.024678 27601 net.cpp:156] Memory required for data: 626196672
I0210 15:53:26.024688 27601 layer_factory.hpp:77] Creating layer relu1_2
I0210 15:53:26.024694 27601 net.cpp:91] Creating Layer relu1_2
I0210 15:53:26.024698 27601 net.cpp:425] relu1_2 <- conv1_2
I0210 15:53:26.024703 27601 net.cpp:399] relu1_2 -> relu1_2
I0210 15:53:26.025014 27601 net.cpp:141] Setting up relu1_2
I0210 15:53:26.025028 27601 net.cpp:148] Top shape: 16 64 224 224 (51380224)
I0210 15:53:26.025032 27601 net.cpp:156] Memory required for data: 831717568
I0210 15:53:26.025035 27601 layer_factory.hpp:77] Creating layer pool1
I0210 15:53:26.025045 27601 net.cpp:91] Creating Layer pool1
I0210 15:53:26.025049 27601 net.cpp:425] pool1 <- relu1_2
I0210 15:53:26.025054 27601 net.cpp:399] pool1 -> pool1
I0210 15:53:26.025102 27601 net.cpp:141] Setting up pool1
I0210 15:53:26.025111 27601 net.cpp:148] Top shape: 16 64 112 112 (12845056)
I0210 15:53:26.025115 27601 net.cpp:156] Memory required for data: 883097792
I0210 15:53:26.025117 27601 layer_factory.hpp:77] Creating layer conv2_1
I0210 15:53:26.025125 27601 net.cpp:91] Creating Layer conv2_1
I0210 15:53:26.025128 27601 net.cpp:425] conv2_1 <- pool1
I0210 15:53:26.025133 27601 net.cpp:399] conv2_1 -> conv2_1
I0210 15:53:26.027911 27601 net.cpp:141] Setting up conv2_1
I0210 15:53:26.027925 27601 net.cpp:148] Top shape: 16 128 112 112 (25690112)
I0210 15:53:26.027941 27601 net.cpp:156] Memory required for data: 985858240
I0210 15:53:26.027951 27601 layer_factory.hpp:77] Creating layer relu2_1
I0210 15:53:26.027958 27601 net.cpp:91] Creating Layer relu2_1
I0210 15:53:26.027962 27601 net.cpp:425] relu2_1 <- conv2_1
I0210 15:53:26.027967 27601 net.cpp:399] relu2_1 -> relu2_1
I0210 15:53:26.028129 27601 net.cpp:141] Setting up relu2_1
I0210 15:53:26.028139 27601 net.cpp:148] Top shape: 16 128 112 112 (25690112)
I0210 15:53:26.028143 27601 net.cpp:156] Memory required for data: 1088618688
I0210 15:53:26.028151 27601 layer_factory.hpp:77] Creating layer conv2_2
I0210 15:53:26.028159 27601 net.cpp:91] Creating Layer conv2_2
I0210 15:53:26.028163 27601 net.cpp:425] conv2_2 <- relu2_1
I0210 15:53:26.028169 27601 net.cpp:399] conv2_2 -> conv2_2
I0210 15:53:26.029216 27601 net.cpp:141] Setting up conv2_2
I0210 15:53:26.029229 27601 net.cpp:148] Top shape: 16 128 112 112 (25690112)
I0210 15:53:26.029245 27601 net.cpp:156] Memory required for data: 1191379136
I0210 15:53:26.029251 27601 layer_factory.hpp:77] Creating layer relu2_2
I0210 15:53:26.029258 27601 net.cpp:91] Creating Layer relu2_2
I0210 15:53:26.029261 27601 net.cpp:425] relu2_2 <- conv2_2
I0210 15:53:26.029289 27601 net.cpp:399] relu2_2 -> relu2_2
I0210 15:53:26.029444 27601 net.cpp:141] Setting up relu2_2
I0210 15:53:26.029454 27601 net.cpp:148] Top shape: 16 128 112 112 (25690112)
I0210 15:53:26.029458 27601 net.cpp:156] Memory required for data: 1294139584
I0210 15:53:26.029461 27601 layer_factory.hpp:77] Creating layer pool2
I0210 15:53:26.029467 27601 net.cpp:91] Creating Layer pool2
I0210 15:53:26.029471 27601 net.cpp:425] pool2 <- relu2_2
I0210 15:53:26.029475 27601 net.cpp:399] pool2 -> pool2
I0210 15:53:26.029513 27601 net.cpp:141] Setting up pool2
I0210 15:53:26.029520 27601 net.cpp:148] Top shape: 16 128 56 56 (6422528)
I0210 15:53:26.029523 27601 net.cpp:156] Memory required for data: 1319829696
I0210 15:53:26.029527 27601 layer_factory.hpp:77] Creating layer conv3_1
I0210 15:53:26.029534 27601 net.cpp:91] Creating Layer conv3_1
I0210 15:53:26.029541 27601 net.cpp:425] conv3_1 <- pool2
I0210 15:53:26.029546 27601 net.cpp:399] conv3_1 -> conv3_1
I0210 15:53:26.031512 27601 net.cpp:141] Setting up conv3_1
I0210 15:53:26.031525 27601 net.cpp:148] Top shape: 16 256 56 56 (12845056)
I0210 15:53:26.031541 27601 net.cpp:156] Memory required for data: 1371209920
I0210 15:53:26.031553 27601 layer_factory.hpp:77] Creating layer relu3_1
I0210 15:53:26.031559 27601 net.cpp:91] Creating Layer relu3_1
I0210 15:53:26.031563 27601 net.cpp:425] relu3_1 <- conv3_1
I0210 15:53:26.031569 27601 net.cpp:399] relu3_1 -> relu3_1
I0210 15:53:26.031906 27601 net.cpp:141] Setting up relu3_1
I0210 15:53:26.031919 27601 net.cpp:148] Top shape: 16 256 56 56 (12845056)
I0210 15:53:26.031922 27601 net.cpp:156] Memory required for data: 1422590144
I0210 15:53:26.031926 27601 layer_factory.hpp:77] Creating layer conv3_2
I0210 15:53:26.031936 27601 net.cpp:91] Creating Layer conv3_2
I0210 15:53:26.031940 27601 net.cpp:425] conv3_2 <- relu3_1
I0210 15:53:26.031949 27601 net.cpp:399] conv3_2 -> conv3_2
I0210 15:53:26.034694 27601 net.cpp:141] Setting up conv3_2
I0210 15:53:26.034719 27601 net.cpp:148] Top shape: 16 256 56 56 (12845056)
I0210 15:53:26.034723 27601 net.cpp:156] Memory required for data: 1473970368
I0210 15:53:26.034730 27601 layer_factory.hpp:77] Creating layer relu3_2
I0210 15:53:26.034739 27601 net.cpp:91] Creating Layer relu3_2
I0210 15:53:26.034741 27601 net.cpp:425] relu3_2 <- conv3_2
I0210 15:53:26.034749 27601 net.cpp:399] relu3_2 -> relu3_2
I0210 15:53:26.034920 27601 net.cpp:141] Setting up relu3_2
I0210 15:53:26.034930 27601 net.cpp:148] Top shape: 16 256 56 56 (12845056)
I0210 15:53:26.034934 27601 net.cpp:156] Memory required for data: 1525350592
I0210 15:53:26.034937 27601 layer_factory.hpp:77] Creating layer conv3_3
I0210 15:53:26.034947 27601 net.cpp:91] Creating Layer conv3_3
I0210 15:53:26.034952 27601 net.cpp:425] conv3_3 <- relu3_2
I0210 15:53:26.034960 27601 net.cpp:399] conv3_3 -> conv3_3
I0210 15:53:26.037654 27601 net.cpp:141] Setting up conv3_3
I0210 15:53:26.037669 27601 net.cpp:148] Top shape: 16 256 56 56 (12845056)
I0210 15:53:26.037673 27601 net.cpp:156] Memory required for data: 1576730816
I0210 15:53:26.037679 27601 layer_factory.hpp:77] Creating layer relu3_3
I0210 15:53:26.037688 27601 net.cpp:91] Creating Layer relu3_3
I0210 15:53:26.037691 27601 net.cpp:425] relu3_3 <- conv3_3
I0210 15:53:26.037696 27601 net.cpp:399] relu3_3 -> relu3_3
I0210 15:53:26.038218 27601 net.cpp:141] Setting up relu3_3
I0210 15:53:26.038231 27601 net.cpp:148] Top shape: 16 256 56 56 (12845056)
I0210 15:53:26.038246 27601 net.cpp:156] Memory required for data: 1628111040
I0210 15:53:26.038249 27601 layer_factory.hpp:77] Creating layer pool3
I0210 15:53:26.038256 27601 net.cpp:91] Creating Layer pool3
I0210 15:53:26.038261 27601 net.cpp:425] pool3 <- relu3_3
I0210 15:53:26.038269 27601 net.cpp:399] pool3 -> pool3
I0210 15:53:26.038310 27601 net.cpp:141] Setting up pool3
I0210 15:53:26.038316 27601 net.cpp:148] Top shape: 16 256 28 28 (3211264)
I0210 15:53:26.038319 27601 net.cpp:156] Memory required for data: 1640956096
I0210 15:53:26.038322 27601 layer_factory.hpp:77] Creating layer conv4_1
I0210 15:53:26.038344 27601 net.cpp:91] Creating Layer conv4_1
I0210 15:53:26.038348 27601 net.cpp:425] conv4_1 <- pool3
I0210 15:53:26.038355 27601 net.cpp:399] conv4_1 -> conv4_1
I0210 15:53:26.043197 27601 net.cpp:141] Setting up conv4_1
I0210 15:53:26.043212 27601 net.cpp:148] Top shape: 16 512 28 28 (6422528)
I0210 15:53:26.043216 27601 net.cpp:156] Memory required for data: 1666646208
I0210 15:53:26.043222 27601 layer_factory.hpp:77] Creating layer relu4_1
I0210 15:53:26.043228 27601 net.cpp:91] Creating Layer relu4_1
I0210 15:53:26.043232 27601 net.cpp:425] relu4_1 <- conv4_1
I0210 15:53:26.043237 27601 net.cpp:399] relu4_1 -> relu4_1
I0210 15:53:26.043581 27601 net.cpp:141] Setting up relu4_1
I0210 15:53:26.043594 27601 net.cpp:148] Top shape: 16 512 28 28 (6422528)
I0210 15:53:26.043597 27601 net.cpp:156] Memory required for data: 1692336320
I0210 15:53:26.043601 27601 layer_factory.hpp:77] Creating layer conv4_2
I0210 15:53:26.043611 27601 net.cpp:91] Creating Layer conv4_2
I0210 15:53:26.043615 27601 net.cpp:425] conv4_2 <- relu4_1
I0210 15:53:26.043622 27601 net.cpp:399] conv4_2 -> conv4_2
I0210 15:53:26.050222 27601 net.cpp:141] Setting up conv4_2
I0210 15:53:26.050238 27601 net.cpp:148] Top shape: 16 512 28 28 (6422528)
I0210 15:53:26.050254 27601 net.cpp:156] Memory required for data: 1718026432
I0210 15:53:26.050264 27601 layer_factory.hpp:77] Creating layer relu4_2
I0210 15:53:26.050271 27601 net.cpp:91] Creating Layer relu4_2
I0210 15:53:26.050274 27601 net.cpp:425] relu4_2 <- conv4_2
I0210 15:53:26.050282 27601 net.cpp:399] relu4_2 -> relu4_2
I0210 15:53:26.050457 27601 net.cpp:141] Setting up relu4_2
I0210 15:53:26.050467 27601 net.cpp:148] Top shape: 16 512 28 28 (6422528)
I0210 15:53:26.050469 27601 net.cpp:156] Memory required for data: 1743716544
I0210 15:53:26.050473 27601 layer_factory.hpp:77] Creating layer conv4_3
I0210 15:53:26.050485 27601 net.cpp:91] Creating Layer conv4_3
I0210 15:53:26.050489 27601 net.cpp:425] conv4_3 <- relu4_2
I0210 15:53:26.050495 27601 net.cpp:399] conv4_3 -> conv4_3
I0210 15:53:26.057385 27601 net.cpp:141] Setting up conv4_3
I0210 15:53:26.057422 27601 net.cpp:148] Top shape: 16 512 28 28 (6422528)
I0210 15:53:26.057427 27601 net.cpp:156] Memory required for data: 1769406656
I0210 15:53:26.057435 27601 layer_factory.hpp:77] Creating layer relu4_3
I0210 15:53:26.057442 27601 net.cpp:91] Creating Layer relu4_3
I0210 15:53:26.057446 27601 net.cpp:425] relu4_3 <- conv4_3
I0210 15:53:26.057452 27601 net.cpp:399] relu4_3 -> relu4_3
I0210 15:53:26.057636 27601 net.cpp:141] Setting up relu4_3
I0210 15:53:26.057646 27601 net.cpp:148] Top shape: 16 512 28 28 (6422528)
I0210 15:53:26.057649 27601 net.cpp:156] Memory required for data: 1795096768
I0210 15:53:26.057652 27601 layer_factory.hpp:77] Creating layer pool4
I0210 15:53:26.057659 27601 net.cpp:91] Creating Layer pool4
I0210 15:53:26.057663 27601 net.cpp:425] pool4 <- relu4_3
I0210 15:53:26.057670 27601 net.cpp:399] pool4 -> pool4
I0210 15:53:26.057711 27601 net.cpp:141] Setting up pool4
I0210 15:53:26.057718 27601 net.cpp:148] Top shape: 16 512 14 14 (1605632)
I0210 15:53:26.057721 27601 net.cpp:156] Memory required for data: 1801519296
I0210 15:53:26.057724 27601 layer_factory.hpp:77] Creating layer conv5_1
I0210 15:53:26.057736 27601 net.cpp:91] Creating Layer conv5_1
I0210 15:53:26.057740 27601 net.cpp:425] conv5_1 <- pool4
I0210 15:53:26.057746 27601 net.cpp:399] conv5_1 -> conv5_1
I0210 15:53:26.064699 27601 net.cpp:141] Setting up conv5_1
I0210 15:53:26.064718 27601 net.cpp:148] Top shape: 16 512 14 14 (1605632)
I0210 15:53:26.064723 27601 net.cpp:156] Memory required for data: 1807941824
I0210 15:53:26.064730 27601 layer_factory.hpp:77] Creating layer relu5_1
I0210 15:53:26.064736 27601 net.cpp:91] Creating Layer relu5_1
I0210 15:53:26.064740 27601 net.cpp:425] relu5_1 <- conv5_1
I0210 15:53:26.064749 27601 net.cpp:399] relu5_1 -> relu5_1
I0210 15:53:26.065122 27601 net.cpp:141] Setting up relu5_1
I0210 15:53:26.065135 27601 net.cpp:148] Top shape: 16 512 14 14 (1605632)
I0210 15:53:26.065153 27601 net.cpp:156] Memory required for data: 1814364352
I0210 15:53:26.065178 27601 layer_factory.hpp:77] Creating layer conv5_2
I0210 15:53:26.065192 27601 net.cpp:91] Creating Layer conv5_2
I0210 15:53:26.065197 27601 net.cpp:425] conv5_2 <- relu5_1
I0210 15:53:26.065214 27601 net.cpp:399] conv5_2 -> conv5_2
I0210 15:53:26.072329 27601 net.cpp:141] Setting up conv5_2
I0210 15:53:26.072360 27601 net.cpp:148] Top shape: 16 512 14 14 (1605632)
I0210 15:53:26.072365 27601 net.cpp:156] Memory required for data: 1820786880
I0210 15:53:26.072371 27601 layer_factory.hpp:77] Creating layer relu5_2
I0210 15:53:26.072377 27601 net.cpp:91] Creating Layer relu5_2
I0210 15:53:26.072381 27601 net.cpp:425] relu5_2 <- conv5_2
I0210 15:53:26.072386 27601 net.cpp:399] relu5_2 -> relu5_2
I0210 15:53:26.072566 27601 net.cpp:141] Setting up relu5_2
I0210 15:53:26.072577 27601 net.cpp:148] Top shape: 16 512 14 14 (1605632)
I0210 15:53:26.072582 27601 net.cpp:156] Memory required for data: 1827209408
I0210 15:53:26.072584 27601 layer_factory.hpp:77] Creating layer conv5_3
I0210 15:53:26.072594 27601 net.cpp:91] Creating Layer conv5_3
I0210 15:53:26.072598 27601 net.cpp:425] conv5_3 <- relu5_2
I0210 15:53:26.072605 27601 net.cpp:399] conv5_3 -> conv5_3
I0210 15:53:26.081342 27601 net.cpp:141] Setting up conv5_3
I0210 15:53:26.081359 27601 net.cpp:148] Top shape: 16 512 14 14 (1605632)
I0210 15:53:26.081375 27601 net.cpp:156] Memory required for data: 1833631936
I0210 15:53:26.081382 27601 layer_factory.hpp:77] Creating layer relu5_3
I0210 15:53:26.081389 27601 net.cpp:91] Creating Layer relu5_3
I0210 15:53:26.081393 27601 net.cpp:425] relu5_3 <- conv5_3
I0210 15:53:26.081398 27601 net.cpp:399] relu5_3 -> relu5_3
I0210 15:53:26.081586 27601 net.cpp:141] Setting up relu5_3
I0210 15:53:26.081598 27601 net.cpp:148] Top shape: 16 512 14 14 (1605632)
I0210 15:53:26.081604 27601 net.cpp:156] Memory required for data: 1840054464
I0210 15:53:26.081606 27601 layer_factory.hpp:77] Creating layer pool5
I0210 15:53:26.081621 27601 net.cpp:91] Creating Layer pool5
I0210 15:53:26.081625 27601 net.cpp:425] pool5 <- relu5_3
I0210 15:53:26.081631 27601 net.cpp:399] pool5 -> pool5
I0210 15:53:26.082013 27601 net.cpp:141] Setting up pool5
I0210 15:53:26.082027 27601 net.cpp:148] Top shape: 16 512 1 1 (8192)
I0210 15:53:26.082031 27601 net.cpp:156] Memory required for data: 1840087232
I0210 15:53:26.082034 27601 layer_factory.hpp:77] Creating layer softmax
I0210 15:53:26.082046 27601 net.cpp:91] Creating Layer softmax
I0210 15:53:26.082053 27601 net.cpp:425] softmax <- pool5
I0210 15:53:26.082059 27601 net.cpp:399] softmax -> softmax
I0210 15:53:26.095492 27601 net.cpp:141] Setting up softmax
I0210 15:53:26.095521 27601 net.cpp:148] Top shape: 16 200 1 1 (3200)
I0210 15:53:26.095526 27601 net.cpp:156] Memory required for data: 1840100032
I0210 15:53:26.095533 27601 layer_factory.hpp:77] Creating layer softmax_softmax_0_split
I0210 15:53:26.095543 27601 net.cpp:91] Creating Layer softmax_softmax_0_split
I0210 15:53:26.095547 27601 net.cpp:425] softmax_softmax_0_split <- softmax
I0210 15:53:26.095553 27601 net.cpp:399] softmax_softmax_0_split -> softmax_softmax_0_split_0
I0210 15:53:26.095561 27601 net.cpp:399] softmax_softmax_0_split -> softmax_softmax_0_split_1
I0210 15:53:26.095610 27601 net.cpp:141] Setting up softmax_softmax_0_split
I0210 15:53:26.095618 27601 net.cpp:148] Top shape: 16 200 1 1 (3200)
I0210 15:53:26.095623 27601 net.cpp:148] Top shape: 16 200 1 1 (3200)
I0210 15:53:26.095625 27601 net.cpp:156] Memory required for data: 1840125632
I0210 15:53:26.095628 27601 layer_factory.hpp:77] Creating layer loss
I0210 15:53:26.095634 27601 net.cpp:91] Creating Layer loss
I0210 15:53:26.095638 27601 net.cpp:425] loss <- softmax_softmax_0_split_0
I0210 15:53:26.095643 27601 net.cpp:425] loss <- label_data_1_split_0
I0210 15:53:26.095649 27601 net.cpp:399] loss -> loss
…
I0210 15:53:26.096987 27601 net.cpp:313] The NetState phase (1) differed from the phase (0) specified by a rule in layer data
I0210 15:53:26.097252 27601 net.cpp:49] Initializing net from parameters: 
state {
  phase: TEST
}
layer {
  name: "data"
  type: "Data"
  top: "data"
  top: "label"
  include {
    phase: TEST
  }
  transform_param {
    mirror: false
    crop_size: 224
    mean_value: 110
    mean_value: 127
    mean_value: 123
  }
  data_param {
    source: "/opt/luojh/Dataset/CUB/LMDB/cub200_2011_val_lmdb"
    batch_size: 2
    backend: LMDB
  }
}
layer {
  name: "conv1_1"
  type: "Convolution"
  bottom: "data"
  top: "conv1_1"
  param {
    lr_mult: 1
    decay_mult: 1
  }
  param {
    lr_mult: 2
    decay_mult: 0
  }
  convolution_param {
    num_output: 64
    pad: 1
    kernel_size: 3
  }
}
layer {
  name: "relu1_1"
  type: "ReLU"
  bottom: "conv1_1"
  top: "relu1_1"
}
layer {
  name: "conv1_2"
  type: "Convolution"
  bottom: "relu1_1"
  top: "conv1_2"
  param {
    lr_mult: 1
    decay_mult: 1
  }
  param {
    lr_mult: 2
    decay_mult: 0
  }
  convolution_param {
    num_output: 64
    pad: 1
    kernel_size: 3
  }
}
layer {
  name: "relu1_2"
  type: "ReLU"
  bottom: "conv1_2"
  top: "relu1_2"
}
layer {
  name: "pool1"
  type: "Pooling"
  bottom: "relu1_2"
  top: "pool1"
  pooling_param {
    pool: MAX
    kernel_size: 2
    stride: 2
  }
}
layer {
  name: "conv2_1"
  type: "Convolution"
  bottom: "pool1"
  top: "conv2_1"
  param {
    lr_mult: 1
    decay_mult: 1
  }
  param {
    lr_mult: 2
    decay_mult: 0
  }
  convolution_param {
    num_output: 128
    pad: 1
    kernel_size: 3
  }
}
layer {
  name: "relu2_1"
  type: "ReLU"
  bottom: "conv2_1"
  top: "relu2_1"
}
layer {
  name: "conv2_2"
  type: "Convolution"
  bottom: "relu2_1"
  top: "conv2_2"
  param {
    lr_mult: 1
    decay_mult: 1
  }
  param {
    lr_mult: 2
    decay_mult: 0
  }
  convolution_param {
    num_output: 128
    pad: 1
    kernel_size: 3
  }
}
layer {
  name: "relu2_2"
  type: "ReLU"
  bottom: "conv2_2"
  top: "relu2_2"
}
layer {
  name: "pool2"
  type: "Pooling"
  bottom: "relu2_2"
  top: "pool2"
  pooling_param {
    pool: MAX
    kernel_size: 2
    stride: 2
  }
}
layer {
  name: "conv3_1"
  type: "Convolution"
  bottom: "pool2"
  top: "conv3_1"
  param {
    lr_mult: 1
    decay_mult: 1
  }
  param {
    lr_mult: 2
    decay_mult: 0
  }
  convolution_param {
    num_output: 256
    pad: 1
    kernel_size: 3
  }
}
layer {
  name: "relu3_1"
  type: "ReLU"
  bottom: "conv3_1"
  top: "relu3_1"
}
layer {
  name: "conv3_2"
  type: "Convolution"
  bottom: "relu3_1"
  top: "conv3_2"
  param {
    lr_mult: 1
    decay_mult: 1
  }
  param {
    lr_mult: 2
    decay_mult: 0
  }
  convolution_param {
    num_output: 256
    pad: 1
    kernel_size: 3
  }
}
layer {
  name: "relu3_2"
  type: "ReLU"
  bottom: "conv3_2"
  top: "relu3_2"
}
layer {
  name: "conv3_3"
  type: "Convolution"
  bottom: "relu3_2"
  top: "conv3_3"
  param {
    lr_mult: 1
    decay_mult: 1
  }
  param {
    lr_mult: 2
    decay_mult: 0
  }
  convolution_param {
    num_output: 256
    pad: 1
    kernel_size: 3
  }
}
layer {
  name: "relu3_3"
  type: "ReLU"
  bottom: "conv3_3"
  top: "relu3_3"
}
layer {
  name: "pool3"
  type: "Pooling"
  bottom: "relu3_3"
  top: "pool3"
  pooling_param {
    pool: MAX
    kernel_size: 2
    stride: 2
  }
}
layer {
  name: "conv4_1"
  type: "Convolution"
  bottom: "pool3"
  top: "conv4_1"
  param {
    lr_mult: 1
    decay_mult: 1
  }
  param {
    lr_mult: 2
    decay_mult: 0
  }
  convolution_param {
    num_output: 512
    pad: 1
    kernel_size: 3
  }
}
layer {
  name: "relu4_1"
  type: "ReLU"
  bottom: "conv4_1"
  top: "relu4_1"
}
layer {
  name: "conv4_2"
  type: "Convolution"
  bottom: "relu4_1"
  top: "conv4_2"
  param {
    lr_mult: 1
    decay_mult: 1
  }
  param {
    lr_mult: 2
    decay_mult: 0
  }
  convolution_param {
    num_output: 512
    pad: 1
    kernel_size: 3
  }
}
layer {
  name: "relu4_2"
  type: "ReLU"
  bottom: "conv4_2"
  top: "relu4_2"
}
layer {
  name: "conv4_3"
  type: "Convolution"
  bottom: "relu4_2"
  top: "conv4_3"
  param {
    lr_mult: 1
    decay_mult: 1
  }
  param {
    lr_mult: 2
    decay_mult: 0
  }
  convolution_param {
    num_output: 512
    pad: 1
    kernel_size: 3
  }
}
layer {
  name: "relu4_3"
  type: "ReLU"
  bottom: "conv4_3"
  top: "relu4_3"
}
layer {
  name: "pool4"
  type: "Pooling"
  bottom: "relu4_3"
  top: "pool4"
  pooling_param {
    pool: MAX
    kernel_size: 2
    stride: 2
  }
}
layer {
  name: "conv5_1"
  type: "Convolution"
  bottom: "pool4"
  top: "conv5_1"
  param {
    lr_mult: 1
    decay_mult: 1
  }
  param {
    lr_mult: 2
    decay_mult: 0
  }
  convolution_param {
    num_output: 512
    pad: 1
    kernel_size: 3
  }
}
layer {
  name: "relu5_1"
  type: "ReLU"
  bottom: "conv5_1"
  top: "relu5_1"
}
layer {
  name: "conv5_2"
  type: "Convolution"
  bottom: "relu5_1"
  top: "conv5_2"
  param {
    lr_mult: 1
    decay_mult: 1
  }
  param {
    lr_mult: 2
    decay_mult: 0
  }
  convolution_param {
    num_output: 512
    pad: 1
    kernel_size: 3
  }
}
layer {
  name: "relu5_2"
  type: "ReLU"
  bottom: "conv5_2"
  top: "relu5_2"
}
layer {
  name: "conv5_3"
  type: "Convolution"
  bottom: "relu5_2"
  top: "conv5_3"
  param {
    lr_mult: 1
    decay_mult: 1
  }
  param {
    lr_mult: 2
    decay_mult: 0
  }
  convolution_param {
    num_output: 512
    pad: 1
    kernel_size: 3
  }
}
layer {
  name: "relu5_3"
  type: "ReLU"
  bottom: "conv5_3"
  top: "relu5_3"
}
layer {
  name: "pool5"
  type: "Pooling"
  bottom: "relu5_3"
  top: "pool5"
  pooling_param {
    pool: AVE
    kernel_size: 14
    stride: 1
  }
}
layer {
  name: "softmax"
  type: "Convolution"
  bottom: "pool5"
  top: "softmax"
  param {
    lr_mult: 10
    decay_mult: 10
  }
  param {
    lr_mult: 20
    decay_mult: 0
  }
  convolution_param {
    num_output: 200
    kernel_size: 1
  }
}
layer {
  name: "loss"
  type: "SoftmaxWithLoss"
  bottom: "softmax"
  bottom: "label"
  top: "loss"
}
layer {
  name: "acc_top_1"
  type: "Accuracy"
  bottom: "softmax"
  bottom: "label"
  top: "acc_top_1"
  accuracy_param {
    top_k: 1
  }
}
I0210 15:53:26.097396 27601 layer_factory.hpp:77] Creating layer data
I0210 15:53:26.097470 27601 net.cpp:91] Creating Layer data
I0210 15:53:26.097478 27601 net.cpp:399] data -> data
I0210 15:53:26.097488 27601 net.cpp:399] data -> label
I0210 15:53:26.124032 27608 db_lmdb.cpp:35] Opened lmdb /opt/luojh/Dataset/CUB/LMDB/cub200_2011_val_lmdb
I0210 15:53:26.144698 27601 data_layer.cpp:41] output data size: 2,3,224,224
I0210 15:53:26.152138 27601 net.cpp:141] Setting up data
I0210 15:53:26.152178 27601 net.cpp:148] Top shape: 2 3 224 224 (301056)
I0210 15:53:26.152199 27601 net.cpp:148] Top shape: 2 (2)
I0210 15:53:26.152207 27601 net.cpp:156] Memory required for data: 1204232
I0210 15:53:26.152220 27601 layer_factory.hpp:77] Creating layer label_data_1_split
I0210 15:53:26.152240 27601 net.cpp:91] Creating Layer label_data_1_split
I0210 15:53:26.152248 27601 net.cpp:425] label_data_1_split <- label
I0210 15:53:26.152262 27601 net.cpp:399] label_data_1_split -> label_data_1_split_0
I0210 15:53:26.152282 27601 net.cpp:399] label_data_1_split -> label_data_1_split_1
I0210 15:53:26.152516 27601 net.cpp:141] Setting up label_data_1_split
I0210 15:53:26.152536 27601 net.cpp:148] Top shape: 2 (2)
I0210 15:53:26.152546 27601 net.cpp:148] Top shape: 2 (2)
I0210 15:53:26.152554 27601 net.cpp:156] Memory required for data: 1204248
I0210 15:53:26.152562 27601 layer_factory.hpp:77] Creating layer conv1_1
I0210 15:53:26.152591 27601 net.cpp:91] Creating Layer conv1_1
I0210 15:53:26.152601 27601 net.cpp:425] conv1_1 <- data
I0210 15:53:26.152618 27601 net.cpp:399] conv1_1 -> conv1_1
I0210 15:53:26.154917 27601 net.cpp:141] Setting up conv1_1
I0210 15:53:26.154942 27601 net.cpp:148] Top shape: 2 64 224 224 (6422528)
I0210 15:53:26.154947 27601 net.cpp:156] Memory required for data: 26894360
I0210 15:53:26.154958 27601 layer_factory.hpp:77] Creating layer relu1_1
I0210 15:53:26.154964 27601 net.cpp:91] Creating Layer relu1_1
I0210 15:53:26.154968 27601 net.cpp:425] relu1_1 <- conv1_1
I0210 15:53:26.154974 27601 net.cpp:399] relu1_1 -> relu1_1
I0210 15:53:26.155618 27601 net.cpp:141] Setting up relu1_1
I0210 15:53:26.155642 27601 net.cpp:148] Top shape: 2 64 224 224 (6422528)
I0210 15:53:26.155663 27601 net.cpp:156] Memory required for data: 52584472
I0210 15:53:26.155668 27601 layer_factory.hpp:77] Creating layer conv1_2
I0210 15:53:26.155678 27601 net.cpp:91] Creating Layer conv1_2
I0210 15:53:26.155683 27601 net.cpp:425] conv1_2 <- relu1_1
I0210 15:53:26.155690 27601 net.cpp:399] conv1_2 -> conv1_2
I0210 15:53:26.157444 27601 net.cpp:141] Setting up conv1_2
I0210 15:53:26.157459 27601 net.cpp:148] Top shape: 2 64 224 224 (6422528)
I0210 15:53:26.157464 27601 net.cpp:156] Memory required for data: 78274584
I0210 15:53:26.157472 27601 layer_factory.hpp:77] Creating layer relu1_2
I0210 15:53:26.157480 27601 net.cpp:91] Creating Layer relu1_2
I0210 15:53:26.157482 27601 net.cpp:425] relu1_2 <- conv1_2
I0210 15:53:26.157492 27601 net.cpp:399] relu1_2 -> relu1_2
I0210 15:53:26.158192 27601 net.cpp:141] Setting up relu1_2
I0210 15:53:26.158206 27601 net.cpp:148] Top shape: 2 64 224 224 (6422528)
I0210 15:53:26.158210 27601 net.cpp:156] Memory required for data: 103964696
I0210 15:53:26.158213 27601 layer_factory.hpp:77] Creating layer pool1
I0210 15:53:26.158222 27601 net.cpp:91] Creating Layer pool1
I0210 15:53:26.158226 27601 net.cpp:425] pool1 <- relu1_2
I0210 15:53:26.158231 27601 net.cpp:399] pool1 -> pool1
I0210 15:53:26.158277 27601 net.cpp:141] Setting up pool1
I0210 15:53:26.158287 27601 net.cpp:148] Top shape: 2 64 112 112 (1605632)
I0210 15:53:26.158289 27601 net.cpp:156] Memory required for data: 110387224
I0210 15:53:26.158293 27601 layer_factory.hpp:77] Creating layer conv2_1
I0210 15:53:26.158299 27601 net.cpp:91] Creating Layer conv2_1
I0210 15:53:26.158303 27601 net.cpp:425] conv2_1 <- pool1
I0210 15:53:26.158308 27601 net.cpp:399] conv2_1 -> conv2_1
I0210 15:53:26.159580 27601 net.cpp:141] Setting up conv2_1
I0210 15:53:26.159605 27601 net.cpp:148] Top shape: 2 128 112 112 (3211264)
I0210 15:53:26.159608 27601 net.cpp:156] Memory required for data: 123232280
I0210 15:53:26.159618 27601 layer_factory.hpp:77] Creating layer relu2_1
I0210 15:53:26.159627 27601 net.cpp:91] Creating Layer relu2_1
I0210 15:53:26.159631 27601 net.cpp:425] relu2_1 <- conv2_1
I0210 15:53:26.159636 27601 net.cpp:399] relu2_1 -> relu2_1
I0210 15:53:26.159821 27601 net.cpp:141] Setting up relu2_1
I0210 15:53:26.159832 27601 net.cpp:148] Top shape: 2 128 112 112 (3211264)
I0210 15:53:26.159834 27601 net.cpp:156] Memory required for data: 136077336
I0210 15:53:26.159838 27601 layer_factory.hpp:77] Creating layer conv2_2
I0210 15:53:26.159847 27601 net.cpp:91] Creating Layer conv2_2
I0210 15:53:26.159852 27601 net.cpp:425] conv2_2 <- relu2_1
I0210 15:53:26.159857 27601 net.cpp:399] conv2_2 -> conv2_2
I0210 15:53:26.162292 27601 net.cpp:141] Setting up conv2_2
I0210 15:53:26.162317 27601 net.cpp:148] Top shape: 2 128 112 112 (3211264)
I0210 15:53:26.162320 27601 net.cpp:156] Memory required for data: 148922392
I0210 15:53:26.162327 27601 layer_factory.hpp:77] Creating layer relu2_2
I0210 15:53:26.162333 27601 net.cpp:91] Creating Layer relu2_2
I0210 15:53:26.162336 27601 net.cpp:425] relu2_2 <- conv2_2
I0210 15:53:26.162343 27601 net.cpp:399] relu2_2 -> relu2_2
I0210 15:53:26.162715 27601 net.cpp:141] Setting up relu2_2
I0210 15:53:26.162729 27601 net.cpp:148] Top shape: 2 128 112 112 (3211264)
I0210 15:53:26.162741 27601 net.cpp:156] Memory required for data: 161767448
I0210 15:53:26.162745 27601 layer_factory.hpp:77] Creating layer pool2
I0210 15:53:26.162762 27601 net.cpp:91] Creating Layer pool2
I0210 15:53:26.162765 27601 net.cpp:425] pool2 <- relu2_2
I0210 15:53:26.162773 27601 net.cpp:399] pool2 -> pool2
I0210 15:53:26.162819 27601 net.cpp:141] Setting up pool2
I0210 15:53:26.162827 27601 net.cpp:148] Top shape: 2 128 56 56 (802816)
I0210 15:53:26.162830 27601 net.cpp:156] Memory required for data: 164978712
I0210 15:53:26.162833 27601 layer_factory.hpp:77] Creating layer conv3_1
I0210 15:53:26.162842 27601 net.cpp:91] Creating Layer conv3_1
I0210 15:53:26.162845 27601 net.cpp:425] conv3_1 <- pool2
I0210 15:53:26.162850 27601 net.cpp:399] conv3_1 -> conv3_1
I0210 15:53:26.165102 27601 net.cpp:141] Setting up conv3_1
I0210 15:53:26.165130 27601 net.cpp:148] Top shape: 2 256 56 56 (1605632)
I0210 15:53:26.165134 27601 net.cpp:156] Memory required for data: 171401240
I0210 15:53:26.165155 27601 layer_factory.hpp:77] Creating layer relu3_1
I0210 15:53:26.165163 27601 net.cpp:91] Creating Layer relu3_1
I0210 15:53:26.165168 27601 net.cpp:425] relu3_1 <- conv3_1
I0210 15:53:26.165172 27601 net.cpp:399] relu3_1 -> relu3_1
I0210 15:53:26.165835 27601 net.cpp:141] Setting up relu3_1
I0210 15:53:26.165849 27601 net.cpp:148] Top shape: 2 256 56 56 (1605632)
I0210 15:53:26.165853 27601 net.cpp:156] Memory required for data: 177823768
I0210 15:53:26.165858 27601 layer_factory.hpp:77] Creating layer conv3_2
I0210 15:53:26.165866 27601 net.cpp:91] Creating Layer conv3_2
I0210 15:53:26.165870 27601 net.cpp:425] conv3_2 <- relu3_1
I0210 15:53:26.165879 27601 net.cpp:399] conv3_2 -> conv3_2
I0210 15:53:26.169083 27601 net.cpp:141] Setting up conv3_2
I0210 15:53:26.169112 27601 net.cpp:148] Top shape: 2 256 56 56 (1605632)
I0210 15:53:26.169116 27601 net.cpp:156] Memory required for data: 184246296
I0210 15:53:26.169122 27601 layer_factory.hpp:77] Creating layer relu3_2
I0210 15:53:26.169131 27601 net.cpp:91] Creating Layer relu3_2
I0210 15:53:26.169137 27601 net.cpp:425] relu3_2 <- conv3_2
I0210 15:53:26.169142 27601 net.cpp:399] relu3_2 -> relu3_2
I0210 15:53:26.169337 27601 net.cpp:141] Setting up relu3_2
I0210 15:53:26.169348 27601 net.cpp:148] Top shape: 2 256 56 56 (1605632)
I0210 15:53:26.169350 27601 net.cpp:156] Memory required for data: 190668824
I0210 15:53:26.169354 27601 layer_factory.hpp:77] Creating layer conv3_3
I0210 15:53:26.169366 27601 net.cpp:91] Creating Layer conv3_3
I0210 15:53:26.169371 27601 net.cpp:425] conv3_3 <- relu3_2
I0210 15:53:26.169378 27601 net.cpp:399] conv3_3 -> conv3_3
I0210 15:53:26.173832 27601 net.cpp:141] Setting up conv3_3
I0210 15:53:26.173856 27601 net.cpp:148] Top shape: 2 256 56 56 (1605632)
I0210 15:53:26.173863 27601 net.cpp:156] Memory required for data: 197091352
I0210 15:53:26.173869 27601 layer_factory.hpp:77] Creating layer relu3_3
I0210 15:53:26.173876 27601 net.cpp:91] Creating Layer relu3_3
I0210 15:53:26.173879 27601 net.cpp:425] relu3_3 <- conv3_3
I0210 15:53:26.173887 27601 net.cpp:399] relu3_3 -> relu3_3
I0210 15:53:26.174245 27601 net.cpp:141] Setting up relu3_3
I0210 15:53:26.174258 27601 net.cpp:148] Top shape: 2 256 56 56 (1605632)
I0210 15:53:26.174271 27601 net.cpp:156] Memory required for data: 203513880
I0210 15:53:26.174275 27601 layer_factory.hpp:77] Creating layer pool3
I0210 15:53:26.174284 27601 net.cpp:91] Creating Layer pool3
I0210 15:53:26.174288 27601 net.cpp:425] pool3 <- relu3_3
I0210 15:53:26.174293 27601 net.cpp:399] pool3 -> pool3
I0210 15:53:26.174341 27601 net.cpp:141] Setting up pool3
I0210 15:53:26.174350 27601 net.cpp:148] Top shape: 2 256 28 28 (401408)
I0210 15:53:26.174351 27601 net.cpp:156] Memory required for data: 205119512
I0210 15:53:26.174355 27601 layer_factory.hpp:77] Creating layer conv4_1
I0210 15:53:26.174363 27601 net.cpp:91] Creating Layer conv4_1
I0210 15:53:26.174368 27601 net.cpp:425] conv4_1 <- pool3
I0210 15:53:26.174373 27601 net.cpp:399] conv4_1 -> conv4_1
I0210 15:53:26.180953 27601 net.cpp:141] Setting up conv4_1
I0210 15:53:26.180968 27601 net.cpp:148] Top shape: 2 512 28 28 (802816)
I0210 15:53:26.180971 27601 net.cpp:156] Memory required for data: 208330776
I0210 15:53:26.180977 27601 layer_factory.hpp:77] Creating layer relu4_1
I0210 15:53:26.180985 27601 net.cpp:91] Creating Layer relu4_1
I0210 15:53:26.180989 27601 net.cpp:425] relu4_1 <- conv4_1
I0210 15:53:26.180994 27601 net.cpp:399] relu4_1 -> relu4_1
I0210 15:53:26.181354 27601 net.cpp:141] Setting up relu4_1
I0210 15:53:26.181367 27601 net.cpp:148] Top shape: 2 512 28 28 (802816)
I0210 15:53:26.181371 27601 net.cpp:156] Memory required for data: 211542040
I0210 15:53:26.181375 27601 layer_factory.hpp:77] Creating layer conv4_2
I0210 15:53:26.181385 27601 net.cpp:91] Creating Layer conv4_2
I0210 15:53:26.181391 27601 net.cpp:425] conv4_2 <- relu4_1
I0210 15:53:26.181411 27601 net.cpp:399] conv4_2 -> conv4_2
I0210 15:53:26.188777 27601 net.cpp:141] Setting up conv4_2
I0210 15:53:26.188802 27601 net.cpp:148] Top shape: 2 512 28 28 (802816)
I0210 15:53:26.188808 27601 net.cpp:156] Memory required for data: 214753304
I0210 15:53:26.188823 27601 layer_factory.hpp:77] Creating layer relu4_2
I0210 15:53:26.188834 27601 net.cpp:91] Creating Layer relu4_2
I0210 15:53:26.188840 27601 net.cpp:425] relu4_2 <- conv4_2
I0210 15:53:26.188849 27601 net.cpp:399] relu4_2 -> relu4_2
I0210 15:53:26.189079 27601 net.cpp:141] Setting up relu4_2
I0210 15:53:26.189091 27601 net.cpp:148] Top shape: 2 512 28 28 (802816)
I0210 15:53:26.189096 27601 net.cpp:156] Memory required for data: 217964568
I0210 15:53:26.189100 27601 layer_factory.hpp:77] Creating layer conv4_3
I0210 15:53:26.189112 27601 net.cpp:91] Creating Layer conv4_3
I0210 15:53:26.189118 27601 net.cpp:425] conv4_3 <- relu4_2
I0210 15:53:26.189127 27601 net.cpp:399] conv4_3 -> conv4_3
I0210 15:53:26.196439 27601 net.cpp:141] Setting up conv4_3
I0210 15:53:26.196456 27601 net.cpp:148] Top shape: 2 512 28 28 (802816)
I0210 15:53:26.196460 27601 net.cpp:156] Memory required for data: 221175832
I0210 15:53:26.196467 27601 layer_factory.hpp:77] Creating layer relu4_3
I0210 15:53:26.196477 27601 net.cpp:91] Creating Layer relu4_3
I0210 15:53:26.196481 27601 net.cpp:425] relu4_3 <- conv4_3
I0210 15:53:26.196487 27601 net.cpp:399] relu4_3 -> relu4_3
I0210 15:53:26.196851 27601 net.cpp:141] Setting up relu4_3
I0210 15:53:26.196864 27601 net.cpp:148] Top shape: 2 512 28 28 (802816)
I0210 15:53:26.196869 27601 net.cpp:156] Memory required for data: 224387096
I0210 15:53:26.196872 27601 layer_factory.hpp:77] Creating layer pool4
I0210 15:53:26.196882 27601 net.cpp:91] Creating Layer pool4
I0210 15:53:26.196887 27601 net.cpp:425] pool4 <- relu4_3
I0210 15:53:26.196892 27601 net.cpp:399] pool4 -> pool4
I0210 15:53:26.196955 27601 net.cpp:141] Setting up pool4
I0210 15:53:26.196964 27601 net.cpp:148] Top shape: 2 512 14 14 (200704)
I0210 15:53:26.196966 27601 net.cpp:156] Memory required for data: 225189912
I0210 15:53:26.196969 27601 layer_factory.hpp:77] Creating layer conv5_1
I0210 15:53:26.196979 27601 net.cpp:91] Creating Layer conv5_1
I0210 15:53:26.196983 27601 net.cpp:425] conv5_1 <- pool4
I0210 15:53:26.196990 27601 net.cpp:399] conv5_1 -> conv5_1
I0210 15:53:26.204207 27601 net.cpp:141] Setting up conv5_1
I0210 15:53:26.204234 27601 net.cpp:148] Top shape: 2 512 14 14 (200704)
I0210 15:53:26.204238 27601 net.cpp:156] Memory required for data: 225992728
I0210 15:53:26.204246 27601 layer_factory.hpp:77] Creating layer relu5_1
I0210 15:53:26.204252 27601 net.cpp:91] Creating Layer relu5_1
I0210 15:53:26.204255 27601 net.cpp:425] relu5_1 <- conv5_1
I0210 15:53:26.204262 27601 net.cpp:399] relu5_1 -> relu5_1
I0210 15:53:26.204629 27601 net.cpp:141] Setting up relu5_1
I0210 15:53:26.204643 27601 net.cpp:148] Top shape: 2 512 14 14 (200704)
I0210 15:53:26.204646 27601 net.cpp:156] Memory required for data: 226795544
I0210 15:53:26.204650 27601 layer_factory.hpp:77] Creating layer conv5_2
I0210 15:53:26.204660 27601 net.cpp:91] Creating Layer conv5_2
I0210 15:53:26.204665 27601 net.cpp:425] conv5_2 <- relu5_1
I0210 15:53:26.204673 27601 net.cpp:399] conv5_2 -> conv5_2
I0210 15:53:26.211935 27601 net.cpp:141] Setting up conv5_2
I0210 15:53:26.211967 27601 net.cpp:148] Top shape: 2 512 14 14 (200704)
I0210 15:53:26.211972 27601 net.cpp:156] Memory required for data: 227598360
I0210 15:53:26.211979 27601 layer_factory.hpp:77] Creating layer relu5_2
I0210 15:53:26.211987 27601 net.cpp:91] Creating Layer relu5_2
I0210 15:53:26.211990 27601 net.cpp:425] relu5_2 <- conv5_2
I0210 15:53:26.211997 27601 net.cpp:399] relu5_2 -> relu5_2
I0210 15:53:26.212209 27601 net.cpp:141] Setting up relu5_2
I0210 15:53:26.212219 27601 net.cpp:148] Top shape: 2 512 14 14 (200704)
I0210 15:53:26.212229 27601 net.cpp:156] Memory required for data: 228401176
I0210 15:53:26.212231 27601 layer_factory.hpp:77] Creating layer conv5_3
I0210 15:53:26.212239 27601 net.cpp:91] Creating Layer conv5_3
I0210 15:53:26.212261 27601 net.cpp:425] conv5_3 <- relu5_2
I0210 15:53:26.212270 27601 net.cpp:399] conv5_3 -> conv5_3
I0210 15:53:26.220413 27601 net.cpp:141] Setting up conv5_3
I0210 15:53:26.220456 27601 net.cpp:148] Top shape: 2 512 14 14 (200704)
I0210 15:53:26.220463 27601 net.cpp:156] Memory required for data: 229203992
I0210 15:53:26.220473 27601 layer_factory.hpp:77] Creating layer relu5_3
I0210 15:53:26.220481 27601 net.cpp:91] Creating Layer relu5_3
I0210 15:53:26.220487 27601 net.cpp:425] relu5_3 <- conv5_3
I0210 15:53:26.220497 27601 net.cpp:399] relu5_3 -> relu5_3
I0210 15:53:26.221002 27601 net.cpp:141] Setting up relu5_3
I0210 15:53:26.221019 27601 net.cpp:148] Top shape: 2 512 14 14 (200704)
I0210 15:53:26.221025 27601 net.cpp:156] Memory required for data: 230006808
I0210 15:53:26.221031 27601 layer_factory.hpp:77] Creating layer pool5
I0210 15:53:26.221048 27601 net.cpp:91] Creating Layer pool5
I0210 15:53:26.221055 27601 net.cpp:425] pool5 <- relu5_3
I0210 15:53:26.221065 27601 net.cpp:399] pool5 -> pool5
I0210 15:53:26.221336 27601 net.cpp:141] Setting up pool5
I0210 15:53:26.221351 27601 net.cpp:148] Top shape: 2 512 1 1 (1024)
I0210 15:53:26.221356 27601 net.cpp:156] Memory required for data: 230010904
I0210 15:53:26.221361 27601 layer_factory.hpp:77] Creating layer softmax
I0210 15:53:26.221374 27601 net.cpp:91] Creating Layer softmax
I0210 15:53:26.221381 27601 net.cpp:425] softmax <- pool5
I0210 15:53:26.221390 27601 net.cpp:399] softmax -> softmax
I0210 15:53:26.223090 27601 net.cpp:141] Setting up softmax
I0210 15:53:26.223110 27601 net.cpp:148] Top shape: 2 200 1 1 (400)
I0210 15:53:26.223116 27601 net.cpp:156] Memory required for data: 230012504
I0210 15:53:26.223125 27601 layer_factory.hpp:77] Creating layer softmax_softmax_0_split
I0210 15:53:26.223135 27601 net.cpp:91] Creating Layer softmax_softmax_0_split
I0210 15:53:26.223141 27601 net.cpp:425] softmax_softmax_0_split <- softmax
I0210 15:53:26.223152 27601 net.cpp:399] softmax_softmax_0_split -> softmax_softmax_0_split_0
I0210 15:53:26.223165 27601 net.cpp:399] softmax_softmax_0_split -> softmax_softmax_0_split_1
I0210 15:53:26.223232 27601 net.cpp:141] Setting up softmax_softmax_0_split
I0210 15:53:26.223247 27601 net.cpp:148] Top shape: 2 200 1 1 (400)
I0210 15:53:26.223255 27601 net.cpp:148] Top shape: 2 200 1 1 (400)
I0210 15:53:26.223259 27601 net.cpp:156] Memory required for data: 230015704
I0210 15:53:26.223264 27601 layer_factory.hpp:77] Creating layer loss
I0210 15:53:26.223273 27601 net.cpp:91] Creating Layer loss
I0210 15:53:26.223280 27601 net.cpp:425] loss <- softmax_softmax_0_split_0
I0210 15:53:26.223287 27601 net.cpp:425] loss <- label_data_1_split_0
I0210 15:53:26.223294 27601 net.cpp:399] loss -> loss
…
